…
	news_encoder.bert_model.pooler.dense.bias
	news_encoder.attn.att_fc1.weight
	news_encoder.attn.att_fc1.bias
	news_encoder.attn.att_fc2.weight
	news_encoder.attn.att_fc2.bias
	news_encoder.dense.weight
	news_encoder.dense.bias
	user_encoder.pad_doc
	user_encoder.attn.att_fc1.weight
	user_encoder.attn.att_fc1.bias
	user_encoder.attn.att_fc2.weight
	user_encoder.attn.att_fc2.bias
[INFO 2022-12-15 15:09:39,671] finetune block 2
[INFO 2022-12-15 15:09:39,671] finetune block 3
ModelBert(
  (news_encoder): NewsEncoder(
    (bert_model): BertModel(
      (embeddings): BertEmbeddings(
        (word_embeddings): Embedding(30522, 512, padding_idx=0)
        (position_embeddings): Embedding(512, 512)
        (token_type_embeddings): Embedding(2, 512)
        (LayerNorm): LayerNorm((512,), eps=1e-12, elementwise_affine=True)
        (dropout): Dropout(p=0.1, inplace=False)
      )
      (encoder): BertEncoder(
        (layer): ModuleList(
          (0): BertLayer(
            (attention): BertAttention(
              (self): BertSelfAttention(
                (query): Linear(in_features=512, out_features=512, bias=True)
                (key): Linear(in_features=512, out_features=512, bias=True)
                (value): Linear(in_features=512, out_features=512, bias=True)
                (dropout): Dropout(p=0.1, inplace=False)
              )
              (output): BertSelfOutput(
                (dense): Linear(in_features=512, out_features=512, bias=True)
                (LayerNorm): LayerNorm((512,), eps=1e-12, elementwise_affine=True)
                (dropout): Dropout(p=0.1, inplace=False)
              )
            )
            (intermediate): BertIntermediate(
              (dense): Linear(in_features=512, out_features=2048, bias=True)
              (intermediate_act_fn): GELUActivation()
            )
            (output): BertOutput(
              (dense): Linear(in_features=2048, out_features=512, bias=True)
              (LayerNorm): LayerNorm((512,), eps=1e-12, elementwise_affine=True)
              (dropout): Dropout(p=0.1, inplace=False)
            )
          )
          (1): BertLayer(
            (attention): BertAttention(
              (self): BertSelfAttention(
                (query): Linear(in_features=512, out_features=512, bias=True)
                (key): Linear(in_features=512, out_features=512, bias=True)
                (value): Linear(in_features=512, out_features=512, bias=True)
                (dropout): Dropout(p=0.1, inplace=False)
              )
              (output): BertSelfOutput(
                (dense): Linear(in_features=512, out_features=512, bias=True)
                (LayerNorm): LayerNorm((512,), eps=1e-12, elementwise_affine=True)
                (dropout): Dropout(p=0.1, inplace=False)
              )
            )
            (intermediate): BertIntermediate(
              (dense): Linear(in_features=512, out_features=2048, bias=True)
              (intermediate_act_fn): GELUActivation()
            )
            (output): BertOutput(
              (dense): Linear(in_features=2048, out_features=512, bias=True)
              (LayerNorm): LayerNorm((512,), eps=1e-12, elementwise_affine=True)
              (dropout): Dropout(p=0.1, inplace=False)
            )
          )
          (2): BertLayer(
            (attention): BertAttention(
              (self): BertSelfAttention(
                (query): Linear(in_features=512, out_features=512, bias=True)
                (key): Linear(in_features=512, out_features=512, bias=True)
                (value): Linear(in_features=512, out_features=512, bias=True)
                (dropout): Dropout(p=0.1, inplace=False)
              )
              (output): BertSelfOutput(
                (dense): Linear(in_features=512, out_features=512, bias=True)
                (LayerNorm): LayerNorm((512,), eps=1e-12, elementwise_affine=True)
                (dropout): Dropout(p=0.1, inplace=False)
              )
            )
            (intermediate): BertIntermediate(
              (dense): Linear(in_features=512, out_features=2048, bias=True)
              (intermediate_act_fn): GELUActivation()
            )
            (output): BertOutput(
              (dense): Linear(in_features=2048, out_features=512, bias=True)
              (LayerNorm): LayerNorm((512,), eps=1e-12, elementwise_affine=True)
              (dropout): Dropout(p=0.1, inplace=False)
            )
          )
          (3): BertLayer(
            (attention): BertAttention(
              (self): BertSelfAttention(
                (query): Linear(in_features=512, out_features=512, bias=True)
                (key): Linear(in_features=512, out_features=512, bias=True)
                (value): Linear(in_features=512, out_features=512, bias=True)
                (dropout): Dropout(p=0.1, inplace=False)
              )
              (output): BertSelfOutput(
                (dense): Linear(in_features=512, out_features=512, bias=True)
                (LayerNorm): LayerNorm((512,), eps=1e-12, elementwise_affine=True)
                (dropout): Dropout(p=0.1, inplace=False)
              )
            )
            (intermediate): BertIntermediate(
              (dense): Linear(in_features=512, out_features=2048, bias=True)
              (intermediate_act_fn): GELUActivation()
            )
            (output): BertOutput(
              (dense): Linear(in_features=2048, out_features=512, bias=True)
              (LayerNorm): LayerNorm((512,), eps=1e-12, elementwise_affine=True)
              (dropout): Dropout(p=0.1, inplace=False)
            )
          )
        )
      )
      (pooler): BertPooler(
        (dense): Linear(in_features=512, out_features=512, bias=True)
        (activation): Tanh()
      )
    )
    (attn): AttentionPooling(
      (att_fc1): Linear(in_features=512, out_features=200, bias=True)
      (att_fc2): Linear(in_features=200, out_features=1, bias=True)
    )
    (dense): Linear(in_features=512, out_features=256, bias=True)
  )
  (user_encoder): UserEncoder(
    (attn): AttentionPooling(
      (att_fc1): Linear(in_features=256, out_features=200, bias=True)
      (att_fc2): Linear(in_features=200, out_features=1, bias=True)
    )
  )
  (loss_fn): CrossEntropyLoss()
)
news_encoder.bert_model.embeddings.word_embeddings.weight False
news_encoder.bert_model.embeddings.position_embeddings.weight False
news_encoder.bert_model.embeddings.token_type_embeddings.weight False
news_encoder.bert_model.embeddings.LayerNorm.weight False
news_encoder.bert_model.embeddings.LayerNorm.bias False
…
